model/DQN.pth (torch, 30007 bytes, 6 tensors)

linear1.weight f4 [64, 41]
0.045193836 -0.12208178 0.020169005 0.07513861 0.14579013 0.058896452 0.07215087 -0.12377027
0.096141994 -0.036913894 0.027058482 -0.036126606 0.0437558 -0.01051873 0.06106262 -0.12335603
0.10258001 0.068427145 -0.1255171 0.14797232 -0.07724515 0.12725371 -0.12202357 0.13933986
0.014121771 0.15034002 0.114153266 -0.12409578 0.1528354 -0.087972686 -0.10210669 0.13873649
-0.09086353 -0.025180638 -0.12818262 0.04705207 -0.14094493 0.14315033 -0.1262936 -0.026232272
-0.1286751 -0.15136041 0.124049455 -0.0114157945 0.10220742 -0.071504846 -0.106655955 0.009365782
-0.02826789 0.020711645 -0.06954174 0.14954704 0.099850565 -0.10879092 -0.03782911 0.00012765825
-0.010624841 -0.1137843 0.013841048 -0.14033923 0.040225044 0.06231098 0.06655891 0.009299338
0.15355414 -0.06754863 -0.06449758 0.10759628 -0.012603253 -0.11410573 0.09537095 -0.04520946
-0.03959135 -0.12700999 -0.06125433 -0.035747923 0.10296768 0.0021180809 0.033202544 -0.1229551
-0.11492245 -0.037789077 -0.064829685 0.021193638 0.01887697 0.0455866 -0.029923573 -0.13152985
-0.067477964 -0.029756546 -0.031591415 0.12639475 0.11601013 -0.07553387 0.1403985 -0.061619394
-0.10773489 -0.118429124 -0.14673376 -0.036333725 -0.048271246 -0.14815153 -0.12391333 0.14893875
0.15203208 0.03436026 0.117637485 0.10749838 0.038360894 -0.13605905 -0.124826185 0.0388992
-0.09259709 0.07529408 0.041725308 0.13302684 0.13207042 -0.04438033 0.0071421117 0.06951001
0.055790767 0.052696973 0.12049961 0.021367297 0.14904264 -0.11759155 -0.12819885 0.10173398
-0.14172706 0.0053040236 -0.06439724 -0.13410571 -0.08637664 0.04741481 -0.018842906 -0.08186189
0.032455936 0.07777026 -0.12243253 -0.106349275 0.12160641 -0.056499787 -0.13134237 0.09000112
0.12886372 -0.103945434 -0.048413 0.1341354 -0.025327042 0.037675872 -0.12992173 0.14334366
0.066528514 -0.115196794 -0.084559694 0.041037828 -0.01505363 -0.10544078 -0.08669373 -0.01950255
-0.035040893 -0.03061895 -0.043295197 0.12073228 -0.12719776 0.03477305 0.06350781 -0.081713304
0.09685886 -0.11269306 0.105182916 0.0971455 -0.11582119 0.06269643 0.071000725 -0.13726191
-0.13797611 0.113277376 -0.027458414 -0.015122771 0.09114285 -0.15528136 -0.08479515 -0.0212425
-0.08749116 -0.007671416 0.009499118 0.11966646 0.086749986 -0.11299377 -0.046568707 0.14731646
0.03901106 -0.120224975 0.017748713 -0.124088414 -0.12235229 -0.1167577 0.09953368 -0.14821406
-0.08683818 -0.14412165 0.1261164 -0.15588263 0.0048274994 -0.0052404404 -0.1325152 -0.089302525
0.041964352 0.05003345 -0.02025339 0.067479566 0.11958724 -0.04697898 0.03609 0.060053214
-0.14279334 -0.078535154 -0.14053516 -0.0041855425 0.101312816 -0.09219862 0.043740064 -0.061300315
0.047259122 0.08538343 -0.064328 -0.096332885 0.12094352 0.13678786 0.0060652345 -0.12140003
0.15227863 -0.10694864 -0.08665897 0.01897429 0.11643997 -0.043252714 -0.068879776 0.033255532
-0.024245352 -0.14028044 -0.010826066 0.086350486 0.14393872 0.10283929 0.029161215 -0.052573465
0.10771635 -0.10478626 0.1522567 -0.13042498 0.04574381 0.040162146 0.029095098 0.038020864
00000000: 2c1d 393d 0306 fabd 7839 a53c 46e2 993d
00000010: 024a 153e 683d 713d d6c3 933d 447b fdbd
00000020: 18e6 c43d 0633 17bd c0a9 dd3c 7ef9 13bd
00000030: 4839 333d c056 2cbc cc1c 7a3d 16a2 fcbd
00000040: 7815 d23d 8823 8c3d 8e87 00be 0e86 173e
00000050: b532 9ebd cc4e 023e 7ee7 f9bd 1caf 0e3e
00000060: 005f 673c bcf2 193e 30c9 e93d ee25 febd
00000070: e280 1c3e 062b b4bd 501d d1bd f010 0e3e
00000080: a916 babd a047 cebc 4e42 03be acb9 403d
00000090: de53 10be 0096 123e 1c53 01be 10e5 d6bc
000000a0: 68c3 03be 39fe 1abe a40d fe3d 5009 3bbc
000000b0: 2052 d13d 2271 92bd 706e dabd f072 193c
000000c0: 1092 e7bc 78ab a93c e66b 8ebd dc22 193e
000000d0: 747e cc3d c6cd debd b2f2 1abd 00dc 0539
000000e0: d013 2ebc be07 e9bd 90c5 623c 16b5 0fbe
000000f0: 04c3 243d cc39 7f3d 0a50 883d 405c 183c
00000100: 4c3d 1d3e f056 8abd 4f17 84bd 705b dc3d
00000110: e07d 4ebc 44b0 e9bd d851 c33d 8e2d 39bd
00000120: 8a2a 22bd e80e 02be d2e5 7abd 6a6c 12bd
00000130: b8e0 d23d 80cf 0a3b 64ff 073d e2cf fbbd
00000140: 765c ebbd b8c8 1abd 6dc5 84bd 489e ad3c
00000150: e0a3 9a3c 04b9 3a3d 4822 f5bc c3af 06be
00000160: e331 8abd 00c4 f3bc 0066 01bd a06d 013e
00000170: b896 ed3d 80b1 9abd a0c4 0f3e 9e64 7cbd
00000180: 1ca4 dcbd f88a f2bd 6041 16be acd2 14bd
00000190: 12b8 45bd 09b5 17be 46c6 fdbd 6683 183e
000001a0: 4cae 1b3e 58bd 0c3d eceb f03d 1c28 dc3d
000001b0: 5020 1d3d 1053 0bbe dfa4 ffbd c454 1f3d
000001c0: 8ba3 bdbd c833 9a3d 28e8 2a3d 3038 083e
000001d0: 783d 073e 26c8 35bd 6008 ea3b 445b 8e3d
000001e0: dc84 643d c8d8 573d 80c8 f63d 780a af3c
000001f0: a29e 183e d7d3 f0bd 8f46 03be e859 d03d
00000200: e620 11be 60cd ad3b b3e2 83bd 0253 09be
00000210: 3ce6 b0bd 0836 423d 705c 9abc 35a7 a7bd
00000220: 84f0 043d 0446 9f3d e8bd fabd a6cd d9bd
00000230: c80c f93d 526c 67bd 9d7e 06be 8252 b83d
00000240: daf4 033e 58e1 d4bd b64c 46bd ca5a 093e
00000250: a87a cfbc 0452 1a3d 340a 05be aec8 123e
00000260: 1a40 883d 4cec ebbd a22d adbd 4817 283d
00000270: 80a3 76bc 56f1 d7bd 7b8c b1bd d0c3 9fbc
00000280: 0a87 0fbd 98d4 fabc 4e56 31bd 7c42 f73d
00000290: 2140 02be 306e 0e3d 6210 823d 4e59 a7bd
000002a0: f05d c63d 9ecb e6bd 246a d73d 38f4 c63d
000002b0: a933 edbd fc66 803d d468 913d 638e 0cbe
000002c0: 9c49 0dbe f8fd e73d 78f0 e0bc 80c5 77bc
000002d0: 1aa9 ba3d 1402 1fbe 14a9 adbd c004 aebc
000002e0: 912e b3bd 8060 fbbb 30a2 1b3c b013 f53d
000002f0: faa9 b13d 4769 e7bd d4be 3ebd 20da 163e
00000300: 10ca 1f3d 8338 f6bd c065 913c 1122 febd
00000310: d693 fabd a91e efbd 50d8 cb3d 6dc5 17be
00000320: 37d8 b1bd a094 13be a824 013e b29f 1fbe
00000330: 0030 9e3b 00b8 abbb 11b2 07be 3ee4 b6bd
00000340: d0e2 2b3d e0ef 4c3d 70ea a5bc ba32 8a3d
00000350: 28ea f43d 086d 40bd 1cd3 133d 5cfa 753d
00000360: 6b38 12be 0ad7 a0bd 73e8 0fbe e026 89bb
00000370: 187d cf3d a1d2 bcbd c828 333d 0a16 7bbd
00000380: c892 413d 82dd ae3d 66be 83bd 2d4a c5bd
00000390: 3cb1 f73d 1e12 0c3e e0be c63b 94a0 f8bd
000003a0: eeee 1b3e e307 dbbd 427a b1bd f86f 9b3c
000003b0: 1478 ee3d c229 31bd d710 8dbd f436 083d
000003c0: 309e c6bc ada5 0fbe d05f 31bc 86d8 b03d
000003d0: ac64 133e 689d d23d 80e3 ee3c 4657 57bd
000003e0: 649a dc3d 2e9a d6bd 2ee9 1b3e 208e 05be
000003f0: dc5d 3b3d 1081 243d d858 ee3c c4bb 1b3d

linear1.bias f4 [64]
-0.0025415719 -0.09768728 0.103128046 0.053424463 0.11961883 0.05764191 -0.1072274 -0.08909749
-0.12009823 -0.035137743 0.085020676 -0.11087072 0.04255776 0.100474864 0.12184322 0.13750291
-0.032343104 -0.13755812 -0.11685946 -0.090109974 -0.11733605 0.054731295 -0.032074966 -0.050909184
-0.14775276 -0.11032674 -0.02574201 0.1467919 -0.09275513 0.087770805 0.15245032 0.06156382
-0.1006245 -0.15113875 -0.10053922 0.056019127 -0.074572854 0.065461755 0.13747048 0.06650627
0.073837966 -0.14283629 -0.102108955 -0.14107285 0.031593055 0.08437471 -0.11559565 -0.124400586
0.05654116 0.028641626 -0.1380627 -0.14852066 -0.0028083026 -0.0052203983 -0.100411296 0.1423833
0.14172882 0.052770525 0.13416973 -0.1371939 0.11085576 -0.012725711 -0.041447632 -0.11432244
00000000: 8090 26bb 4510 c8bd cc34 d33d 9cd3 5a3d
00000010: b8fa f43d ec19 6c3d 0a9a dbbd bf78 b6bd
00000020: 10f6 f5bd 98ec 0fbd 521f ae3d 3010 e3bd
00000030: 0c51 2e3d c4c5 cd3d f088 f93d 90cd 0c3e
00000040: 347a 04bd 09dc 0cbe 0354 efbd 948b b8bd
00000050: e24d f0bd ec2d 603d 0a61 03bd 2686 50bd
00000060: 804c 17be fcf2 e1bd e8e0 d2bc 9e50 163e
00000070: 67f6 bdbd 2ec1 b33d f01b 1c3e 582a 7c3d
00000080: 3814 cebd 1ec4 1abe 82e7 cdbd 5074 653d
00000090: a7b9 98bd d010 863d 10c5 0c3e 7034 883d
000000a0: 5c38 973d ad43 12be 801e d1bd 6775 10be
000000b0: b867 013d a6cc ac3d 6abd ecbd bcc5 febd
000000c0: b497 673d d8a1 ea3c 4f60 0dbe cd15 18be
000000d0: 800b 38bb e00f abbb 70a4 cdbd eecc 113e
000000e0: 5c21 113e e825 583d ca63 093e 8f7c 0cbe
000000f0: 5808 e33d 807f 50bc fec4 29bd e221 eabd

linear2.weight f4 [64, 64]
-0.11948173 0.11030674 -0.028733313 0.019108817 0.07476631 0.046651527 -0.09659642 -0.03581965
0.11157474 -0.0973385 -0.112676725 -0.0070172697 0.04518935 -0.082431465 -0.0633501 0.09070791
-0.1213676 0.09880303 -0.019806862 0.09004611 0.034314007 -0.018663853 0.0618366 0.09779292
0.034668654 -0.038196355 0.06094119 0.050418437 -0.09572303 -0.11427878 0.020924836 -0.07953484
-0.056051657 0.015578851 -0.10337651 -0.012594014 0.024823025 0.07652809 0.09040454 -0.117941886
0.054072797 0.023088112 -0.05166088 -0.11942147 0.063736066 -0.07619277 -0.12118849 -0.06530514
0.10497475 0.049220398 0.03430797 0.04485354 0.0024991333 0.09425403 0.024801955 0.0016010553
0.0716764 -0.10697509 0.05366032 0.12435527 -0.0705459 0.010423839 -0.067928374 -0.013782367
0.09361301 0.06682484 0.08154102 0.00955455 -0.08719145 -0.07536326 0.117492795 -0.07830243
-0.044110566 -0.05615291 -0.07720001 -0.0754306 0.032334805 -0.024416134 0.08227342 0.009794831
0.09574272 -0.08431761 -0.054360792 -0.044245973 -0.0017379969 0.045368657 0.012017429 0.020662248
-0.0022830367 0.05113007 0.051579446 0.11791156 -0.0013599247 -0.10966493 -0.026669458 0.041245416
-0.0720008 -0.047907054 -0.09571639 -0.11384903 0.014104366 -0.03896755 -0.09585172 0.071833104
-0.11826128 -0.014441282 0.084220394 -0.069885716 0.10536507 -0.023109257 -0.037234113 0.07225175
0.11238307 0.026423275 -0.031082273 -0.005108267 -0.083066255 -0.05392103 0.01214008 -0.020570546
0.11045417 -0.04389471 -0.0016220212 -0.01834087 0.07333009 -0.040384054 0.07923938 -0.017013416
-0.027187511 -0.011107519 -0.005665168 -0.12390177 -0.007298425 0.02228731 -0.005381331 -0.08501606
-0.09781863 -0.08085963 0.021334678 -0.018123835 -0.055895776 0.037287697 0.101132646 -0.013282657
-0.04346989 -0.026587859 -0.008745119 0.08756757 0.03150329 -0.10119988 0.08229394 -0.07142256
0.06707463 0.10209793 0.03307213 -0.03302054 0.09163369 0.10516302 -0.024608612 -0.028307185
-0.040968955 -0.01419425 0.009432346 -0.01883839 -0.04023823 0.02643478 0.08191779 0.1062264
-0.11582774 -0.124444604 0.016116306 -0.11163339 -0.047986805 0.08956528 0.08918981 -0.00012941658
0.11715242 0.06905213 -0.06589252 -0.07644668 0.022986323 -0.105117425 0.058863655 0.038477227
0.10239366 0.046547785 -0.10802917 0.032278717 -0.056632534 0.041465715 -0.016682252 -0.01505506
-0.07626431 -0.00060753524 0.056748465 -0.06699295 -0.07616767 0.047936097 -0.0016714633 -0.09447631
0.055385634 -0.10417758 -0.10691987 0.06305742 -0.052076384 -0.10169378 0.045450628 0.064680114
-0.09986736 -0.073128864 0.043688476 0.060993686 0.0334284 -0.03622578 -0.08904408 -0.08112019
0.027693689 -0.08043598 0.09834832 -0.018023252 0.023428842 -0.0119280815 -0.044066295 0.1211822
0.0368672 0.01126425 -0.045440212 0.03642772 -0.0659416 0.11346589 0.12466356 0.10834126
-0.019883886 -0.058316514 -0.051965922 0.015627727 0.112983376 0.07457672 0.036845863 0.056991175
0.0073994547 -0.012977481 -0.10864495 0.08690277 0.12314381 0.11247504 -0.0048413724 0.097812995
-0.018153042 -0.035066456 -0.09346418 0.11733155 -0.1080073 0.020201728 -0.049865738 0.05379811
00000000: d6b2 f4bd 80e8 e13d 2062 ebbc 188a 9c3c
00000010: 141f 993d ac15 3f3d 58d4 c5bd a0b7 12bd
00000020: 4c81 e43d 6859 c7bd 0ec3 e6bd 20f1 e5bb
00000030: 7818 393d d4d1 a8bd b2bd 81bd 12c5 b93d
00000040: 948f f8bd 3e59 ca3d 0042 a2bc 186a b83d
00000050: d88c 0c3d f0e4 98bc 6048 7d3d a847 c83d
00000060: b800 0e3d c873 1cbd 789d 793d 9083 4e3d
00000070: 700a c4bd fe0a eabd 906a ab3c 2ae3 a2bd
00000080: 6c96 65bd 703e 7f3c 10b7 d3bd 2057 4ebc
00000090: a859 cb3c c2ba 9c3d 0426 b93d 848b f1bd
000000a0: 707b 5d3d 4823 bd3c 5c9a 53bd 3e93 f4bd
000000b0: 0e88 823d f40a 9cbd ac31 f8bd b4be 85bd
000000c0: 00fd d63d 549b 493d 8486 0c3d 58b8 373d
000000d0: 80c8 233b 4208 c13d 782d cb3c 80da d13a
000000e0: 14cb 923d c215 dbbd ecca 5b3d faad fe3d
000000f0: 5e7a 90bd c0c8 2a3c 081e 8bbd 70cf 61bc
00000100: 2eb8 bf3d 76db 883d fafe a63d b08a 1c3c
00000110: 6e91 b2bd 0e58 9abd 10a0 f03d 065d a0bd
00000120: 48ad 34bd 9800 66bd 0a1b 9ebd 5c7b 9abd
00000130: 8071 043d 5804 c8bc f87e a83d 807a 203c
00000140: c214 c43d b6ae acbd 6ca9 5ebd 443b 35bd
00000150: 80cd e3ba 7cd4 393d c0e4 443c e043 a93c
00000160: 009f 15bb c46d 513d f844 533d 9e7b f13d
00000170: 803f b2ba 0298 e0bd e879 dabc f4f0 283d
00000180: 2875 93bd 303a 44bd f406 c4bd ae29 e9bd
00000190: 0016 673c 709c 1fbd e84d c4bd 3c1d 933d
000001a0: f832 f2bd 209b 6cbc be7b ac3d 3e20 8fbd
000001b0: a4c9 d73d a04f bdbc cc82 18bd baf8 933d
000001c0: 1829 e63d a075 d83c 40a0 febc 4063 a7bb
000001d0: a41e aabd 4cdc 5cbd 30e7 463c 9083 a8bc
000001e0: cc35 e23d f0ca 33bd 009a d4ba 983f 96bc
000001f0: 162e 963d c069 25bd 4248 a23d b85f 8bbc
00000200: 58b8 debc 50fc 35bc e0a2 b9bb 36c0 fdbd
00000210: a027 efbb e093 b63c e055 b0bb e61c aebd
00000220: 2255 c8bd bc99 a5bd 10c6 ae3c 7078 94bc
00000230: f8f2 64bd fcba 183d a21e cf3d 809f 59bc
00000240: 7c0d 32bd c8ce d9bc b047 0fbc a056 b33d
00000250: 9809 013d e241 cfbd ba89 a83d fe45 92bd
00000260: 6c5e 893d b818 d13d a476 073d 8c40 07bd
00000270: 72aa bb3d b65f d73d 0098 c9bc 78e4 e7bc
00000280: 10cf 27bd 008f 68bc 208a 1a3c f852 9abc
00000290: d8d0 24bd c08d d83c 84c4 a73d 3a8d d93d
000002a0: 1837 edbd d0dc febd 5806 843c 0ca0 e4bd
000002b0: d08d 44bd 006e b73d 26a9 b63d 00b4 07b9
000002c0: 9ced ef3d 346b 8d3d a8f2 86bd 1490 9cbd
000002d0: d04d bc3c ce47 d7bd 041b 713d 4c9a 1d3d
000002e0: c4b3 d13d e4a8 3e3d 663e ddbd b036 043d
000002f0: 84f7 67bd f4d7 293d 38a9 88bc 80a9 76bc
00000300: 7630 9cbd 0043 1fba 1471 683d 9a33 89bd
00000310: ccfd 9bbd a458 443d 0015 dbba cc7c c1bd
00000320: 0cdc 623d 0e5b d5bd cef8 dabd 4024 813d
00000330: 0c4e 55bd d444 d0bd 702a 3a3d 0277 843d
00000340: 4287 ccbd 96c4 95bd b0f2 323d 84d4 793d
00000350: 38ec 083d 7c61 14bd be5c b6bd 5822 a6bd
00000360: e0dd e23c 9ebb a4bd d86a c93d 80a5 93bc
00000370: d8ed bf3c 006e 43bc dc7e 34bd 602e f83d
00000380: 1002 173d b08d 383c 841f 3abd 3c35 153d
00000390: 640c 87bd ce60 e83d 9c4f ff3d 06e2 dd3d
000003a0: 88e3 a2bc 4cdd 6ebd 38da 54bd b805 803c
000003b0: d463 e73d aebb 983d b0eb 163d 946f 693d
000003c0: 2077 f23b 809f 54bc 3e81 debd 14fa b13d
000003d0: d232 fc3d 5059 e63d 60a4 9ebb 2e52 c83d
000003e0: b0b5 94bc d8a1 0fbd 266a bfbd 864b f03d
000003f0: ee32 ddbd 187e a53c 0440 4cbd 685b 5c3d

linear2.bias f4 [64]
-0.04789628 -0.098759264 0.019733489 -0.005434394 0.09742966 0.060815632 -0.009501576 0.12488599
-0.08562715 -0.10259685 0.047355294 -0.10175313 -0.094543666 0.09850499 0.07563937 -0.06655671
0.013750836 0.015753403 0.046986118 0.06504007 -0.03273888 0.06340325 0.1239094 0.10016282
-0.10831255 0.007447824 0.079868406 -0.005250573 -0.100722864 0.04302706 0.06558864 -0.07045695
-0.07134709 0.11761175 -0.07651764 -0.07955545 -0.06870979 0.049995854 -0.11960791 0.11365926
0.088902235 0.022867382 -0.11759634 -0.009495556 0.113864765 -0.084575355 -0.031040907 0.061446056
-0.019108519 0.033728138 -0.016453445 -0.050293207 -0.016600803 -0.04848157 -0.057154745 0.06617309
0.041975185 0.02704604 0.064796105 -0.028361559 -0.014040172 0.029551238 -0.042134807 -0.038867354
00000000: e42e 44bd 4c42 cabd 20a8 a13c 0013 b2bb
00000010: 3489 c73d d019 793d 80ac 1bbc 3ac4 ff3d
00000020: 4a5d afbd 4c1e d2bd a0f7 413d f263 d0bd
00000030: 1ca0 c1bd fcbc c93d d0e8 9a3d e24e 88bd
00000040: 304b 613c 480d 813c 8474 403d ba33 853d
00000050: 3419 06bd 90d9 813d 36c4 fd3d 2a22 cd3d
00000060: f8d2 ddbd e00c f43b 0c92 a33d 000d acbb
00000070: ca47 cebd 243d 303d 5653 863d bc4b 90bd
00000080: 6c1e 92bd 6ede f03d 48b5 9cbd f8ed a2bd
00000090: b8b7 8cbd 74c8 4c3d fef4 f4bd 30c6 e83d
000000a0: 6012 b63d 6054 bb3c 5ad6 f0bd 4093 1bbc
000000b0: ee31 e93d d835 adbd 8049 febc dcae 7b3d
000000c0: 7889 9cbc 8426 0a3d 60c9 86bc 4000 4ebd
000000d0: 68fe 87bc 9c94 46bd 181b 6abd c285 873d
000000e0: 2cee 2b3d a88f dd3c d2b3 843d 8056 e8bc
000000f0: c008 66bc 7015 f23c 8c95 2cbd 6033 1fbd

output.weight f4 [3, 64]
-0.08667037 -0.08790591 -0.03669326 -0.007259175 -0.00094279647 -0.0897228 -0.043210045 0.098296255
0.08423604 -0.059181422 0.08481108 0.058252677 0.10779302 0.07528566 -0.113037616 -0.007732287
0.052394465 -0.10110988 -0.07897833 0.05147226 0.11419055 0.06846145 -0.11053468 0.04074523
0.0967882 -0.12048043 0.10679793 -0.015908152 0.015289828 -0.026953667 -0.040353388 0.121288896
0.044720903 -0.014860675 -0.08710441 -0.060226068 0.012369245 -0.092168376 0.09966822 0.12038925
0.106307864 -0.083415404 0.07467866 -0.06650534 0.12433222 -0.08772731 0.08073698 0.018244743
-0.027794734 0.1068275 0.09515266 0.04732187 0.039551526 -0.10720299 0.11646797 0.05984707
0.1129252 0.040350378 -0.016807705 -0.09674953 -0.0516849 -0.07766315 -0.09920089 -0.073622555
0.03383799 -0.0178238 -0.00388214 -0.08814865 -0.0864847 -0.024075136 0.0014400631 -0.0735701
-0.007709831 -0.05812289 0.08585875 0.081943676 -0.014126211 0.03822106 -0.05159478 -0.00024096668
0.10670601 -0.041675553 -0.12453093 0.108337015 -0.028459266 0.06749581 0.0039420873 0.022675663
0.0387152 0.02218151 -0.104045376 -0.030290365 -0.042566314 0.053889632 0.08661829 -0.04544446
-0.10303719 0.0396332 -0.008272141 0.018448383 -0.12414616 0.101659864 0.06415424 0.011019781
-0.11023188 0.050169587 0.09724437 0.06296836 0.11572926 0.07903266 -0.10681893 0.07515834
0.09416799 0.090690285 -0.108155 0.031358168 0.06842551 -0.07654843 -0.108976305 -0.04136212
0.075117454 -0.030523732 0.03806688 0.0547895 0.05096923 -0.09269649 0.06541933 0.006197199
0.10743922 -0.056669727 -0.03429924 -0.007922843 -0.09123358 0.048257068 -0.019977659 -0.08886357
-0.07859577 0.020805418 0.08167109 -0.12477115 -0.0757419 -0.120823026 -0.03664373 -0.102874085
0.05338849 -0.06279424 0.010349125 -0.014987171 0.057928666 0.08504504 0.085841626 0.061980397
0.03520468 -0.10912582 0.121388614 0.11412282 -0.0066069514 0.01931426 -0.077566415 0.10855506
0.11268316 -0.021978185 0.07315102 -0.11742842 -0.046219468 -0.025847003 0.124314815 0.11647019
0.121582344 -0.051077917 -0.10194638 -0.044828355 -0.058438152 -0.042964906 0.021024853 -0.010899037
-0.091082156 0.11095996 -0.12134066 -0.07368471 -0.028078496 -0.032180697 0.029184327 -0.06298287
0.105002955 -0.034010038 0.0761736 0.09268375 0.08996394 0.025029764 -0.0008623898 0.10204078
00000000: 3c80 b1bd 0408 b4bd ac4b 16bd 60de edbb
00000010: 0026 77ba 96c0 b7bd 04fd 30bd 8c4f c93d
00000020: f283 ac3d 3868 72bd 6eb1 ad3d 5c9a 6e3d
00000030: 96c2 dc3d 5e2f 9a3d 4480 e7bd 205f fdbb
00000040: 949b 563d b212 cfbd 64bf a1bd 94d4 523d
00000050: bcdc e93d 8435 8c3d 0260 e2bd 78e4 263d
00000060: e438 c63d 72be f6bd e0b8 da3d d051 82bc
00000070: 3082 7a3c f0cd dcbc 9849 25bd 5066 f83d
00000080: 442d 373d 307a 73bc cc63 b2bd 9caf 76bd
00000090: 60a8 4a3c c6c2 bcbd da1e cc3d a48e f63d
000000a0: f0b7 d93d b2d5 aabd 20f1 983d f433 88bd
000000b0: e4a1 fe3d 60aa b3bd 6e59 a53d 0076 953c
000000c0: c8b1 e3bc 60c8 da3d 66df c23d 94d4 413d
000000d0: c800 223d 3e8d dbbd c286 ee3d 3422 753d
000000e0: 5445 e73d 7046 253d 50b0 89bc 9e24 c6bd
000000f0: 8cb3 53bd dc0d 9fbd d629 cbbd 6cc7 96bd
00000100: b499 0a3d 3803 92bc 806b 7ebb 4887 b4bd
00000110: e41e b1bd 3839 c5bc 80c0 bc3a ecab 96bd
00000120: c0a2 fcbb 4412 6ebd b6d6 af3d 16d2 a73d
00000130: a071 67bc b08d 1c3d 0c55 53bd 00ac 7cb9
00000140: ae88 da3d fcb3 2abd 120a ffbd ccdf dd3d
00000150: 6823 e9bc 3e3b 8a3d a02c 813b 50c2 b93c
00000160: d493 1e3d 00b6 b53c be15 d5bd 8023 f8bc
00000170: 045a 2ebd 60bb 5c3d ee64 b13d f823 3abd
00000180: 2a05 d3bd 6c56 223d e087 07bc 1021 973c
00000190: 5840 febd 0c33 d03d 4c63 833d 508c 343c
000001a0: 40c1 e1bd a07e 4d3d 0e28 c73d 8ef5 803d
000001b0: 7603 ed3d e0db a13d e2c3 dabd 9eec 993d
000001c0: 26db c03d d4bb b93d 5e80 ddbd 6c71 003d
000001d0: ac22 8c3d 6cc5 9cbd f82e dfbd 546b 29bd
000001e0: 2ed7 993d e80c fabc 04ec 1b3d f46a 603d
000001f0: 1cc5 503d a8d7 bdbd 92fa 853d e011 cb3b
00000200: 1809 dc3d 841e 68bd 5c7d 0cbd d0ce 01bc
00000210: acd8 babd 34a9 453d 30a8 a3bc 1afe b5bd
00000220: d2f6 a0bd 2070 aa3c 2c43 a73d 0488 ffbd
00000230: 921e 9bbd 1072 f7bd bc17 16bd a6af d2bd
00000240: e4ad 5a3d 449a 80bd 608f 293c c08c 75bc
00000250: 9c46 6d3d 182c ae3d bccd af3d 28df 7d3d
00000260: c832 103d 5c7d dfbd 989a f83d 3ab9 e93d
00000270: 207f d8bb f038 9e3c 24db 9ebd 1e52 de3d
00000280: 6ec6 e63d 980b b4bc 34d0 953d 507e f0bd
00000290: a050 3dbd 18bd d3bc c498 fe3d ec87 ee3d
000002a0: 2a00 f93d 1437 51bd 44c9 d0bd f09d 37bd
000002b0: d85c 6fbd f8fb 2fbd 503c ac3c e091 32bc
000002c0: 4889 babd fa3e e33d 7481 f8bd 02e8 96bd
000002d0: e004 e6bc e8cf 03bd f813 ef3c 2afd 80bd
000002e0: ca0b d73d 1c4e 0bbd e800 9c3d fad0 bd3d
000002f0: 043f b83d 380b cd3c 0012 62ba c2fa d03d

output.bias f4 [3]
-0.009927884 0.05684884 0.08552164
00000000: 90a8 22bc 54da 683d f825 af3d
